…
k, def_device, to_cpu\n\n/home/conda-envs/fastai/lib/python3.10/site-packages/tqdm/auto.py:21: TqdmWarning: IProgress not found. Please update jupyter and ipywidgets. See https://ipywidgets.readthedocs.io/en/stable/user_install.html\n  from .autonotebook import tqdm as notebook_tqdm\n\n\nIn the paper the authors have used vgg19 as the pretrained model, we can download that using timm’s library\n\ntimm.list_models('*vgg19*', pretrained=True)\n\n['vgg19.tv_in1k', 'vgg19_bn.tv_in1k']\n\n\n\nvgg19 = timm.create_model('vgg19', pretrained=True).to(def_device).features\n\n\nvgg19\n\nSequential(\n  (0): Conv2d(3, 64, kernel_size=(3, 3), stride=(1, 1), padding=(1, 1))\n  (1): ReLU(inplace=True)\n  (2): Conv2d(64, 64, kernel_size=(3, 3), stride=(1, 1), padding=(1, 1))\n  (3): ReLU(inplace=True)\n  (4): MaxPool2d(kernel_size=2, stride=2, padding=0, dilation=1, ceil_mode=False)\n  (5): Conv2d(64, 128, kernel_size=(3, 3), stride=(1, 1), padding=(1, 1))\n  (6): ReLU(inplace=True)\n  (7): Conv2d(128, 128, kernel_size=(3, 3), stride=(1, 1), padding=(1, 1))\n  (8): ReLU(inplace=True)\n  (9): MaxPool2d(kernel_size=2, stride=2, padding=0, dilation=1, ceil_mode=False)\n  (10): Conv2d(128, 256, kernel_size=(3, 3), stride=(1, 1), padding=(1, 1))\n  (11): ReLU(inplace=True)\n  (12): Conv2d(256, 256, kernel_size=(3, 3), stride=(1, 1), padding=(1, 1))\n  (13): ReLU(inplace=True)\n  (14): Conv2d(256, 256, kernel_size=(3, 3), stride=(1, 1), padding=(1, 1))\n  (15): ReLU(inplace=True)\n  (16): Conv2d(256, 256, kernel_size=(3, 3), stride=(1, 1), padding=(1, 1))\n  (17): ReLU(inplace=True)\n  (18): MaxPool2d(kernel_size=2, stride=2, padding=0, dilation=1, ceil_mode=False)\n  (19): Conv2d(256, 512, kernel_size=(3, 3), stride=(1, 1), padding=(1, 1))\n  (20): ReLU(inplace=True)\n  (21): Conv2d(512, 512, kernel_size=(3, 3), stride=(1, 1), padding=(1, 1))\n  (22): ReLU(inplace=True)\n  (23): Conv2d(512, 512, kernel_size=(3, 3), stride=(1, 1), padding=(1, 1))\n  (24): ReLU(inplace=True)\n  (25): Conv2d(512, 512, kernel_size=(3, 3), stride=(1, 1), padding=(1, 1))\n  (26): ReLU(inplace=True)\n  (27): MaxPool2d(kernel_size=2, stride=2, padding=0, dilation=1, ceil_mode=False)\n  (28): Conv2d(512, 512, kernel_size=(3, 3), stride=(1, 1), padding=(1, 1))\n  (29): ReLU(inplace=True)\n  (30): Conv2d(512, 512, kernel_size=(3, 3), stride=(1, 1), padding=(1, 1))\n  (31): ReLU(inplace=True)\n  (32): Conv2d(512, 512, kernel_size=(3, 3), stride=(1, 1), padding=(1, 1))\n  (33): ReLU(inplace=True)\n  (34): Conv2d(512, 512, kernel_size=(3, 3), stride=(1, 1), padding=(1, 1))\n  (35): ReLU(inplace=True)\n  (36): MaxPool2d(kernel_size=2, stride=2, padding=0, dilation=1, ceil_mode=False)\n)\n\n\nIn the paper the authors have replaced the max_pooling layers with average_pooling layers stating that it improves gradient flow and one obtains more appealing results. In the above vgg19 model there are 5 max_pooling l
…
